Done/8 - XOR ONNX/xor-model.onnx (onnx, 10220 bytes, 7 tensors)

dense_4/kernel:0 f4 [64, 1]
000000 e6 c6 7f be be e0 45 be 15 2b 72 3e a9 87 6f be
       -0.24978217 -0.19324014 0.23649247 -0.23391594
000010 34 ff c8 3e 55 31 3f be 72 e1 3a 3f 8a 22 21 bf
       0.39257205 -0.18671162 0.7300025 -0.6294333
000020 7a 41 e1 3d e8 6b b4 be 8b 15 e5 3e d7 2d 05 bf
       0.10998817 -0.35238576 0.44742998 -0.5202307
000030 7b 89 7c 3e 3d 93 8e 3e f9 8e 30 bd 12 99 b7 be
       0.2466182 0.2784671 -0.0431051 -0.3585897
000040 b8 69 66 3e 6b ce 2e be 0a 31 e8 3d 23 d1 a6 3e
       0.22501266 -0.1707093 0.113374785 0.32581434
000050 75 4b c9 3e 48 33 67 3d 12 ad 10 3f 33 e5 ac 3d
       0.39315382 0.05644539 0.56514084 0.08442154
000060 3a 97 22 bc 8a 70 87 3e 65 d3 66 be d3 31 e3 3d
       -0.009923751 0.26453048 -0.22541578 0.110934876
000070 19 6a 95 bd ba 67 87 be 99 92 e5 be de b5 d1 3e
       -0.07295627 -0.26446325 -0.44838408 0.40959066
000080 cd 21 54 3d ef 49 43 be 50 15 8f 3e 6c 75 8d be
       0.051790047 -0.19071172 0.27945948 -0.27628648
000090 2b 08 a6 3e e7 7f 3c bf 01 ab 5e 3e 31 b6 7e bd
       0.32428107 -0.73632663 0.2174492 -0.06218547
0000a0 d1 4a b8 be 21 b9 9e be ae 5c 29 3e 28 dc 84 3e
       -0.3599458 -0.31000617 0.1653926 0.25949216
0000b0 61 63 dd 3e 9b a1 3e be 29 be 35 bf ca 5e ee 3d
       0.43239883 -0.18616335 -0.70993286 0.11639173
0000c0 37 60 0e 3f c2 bc 07 3f fd f6 a8 3d f7 6e d4 be
       0.5561556 0.53022397 0.08250234 -0.4149091
0000d0 90 ac 23 3e c3 b6 a8 3e 47 46 84 3e f2 3c 59 3e
       0.15983796 0.32951936 0.25834867 0.21214655
0000e0 e2 6a 4f 3e 1f 46 37 3e 78 85 26 3d da bb 48 3e
       0.20255616 0.17897843 0.04065463 0.1960291
0000f0 23 eb bf 3e 5e 24 ba 3e 3f d5 1c bf f4 fe 18 3e
       0.37484083 0.3635587 -0.6126289 0.14941007

dense_3/kernel:0 f4 [32, 64]
000000 84 cc 79 3e e2 30 46 3a 94 58 48 3d eb 10 82 bd
       0.24394423 0.00075603847 0.0489126 -0.06350883
000010 6c 83 82 3e dc e3 21 be 7f cf 1c 3d 44 6d 00 be
       0.25490892 -0.15809578 0.03828382 -0.12541682
000020 f9 9f 8f bd 06 2e 6d be a7 4f 95 3c 2e 2a f2 bd
       -0.07012934 -0.23162088 0.018226458 -0.118244514
000030 b8 ad 55 be 5d 10 43 bd 53 b2 70 3e 20 db ed 3c
       -0.2086705 -0.047623027 0.23505525 0.029035151
000040 6c ed 52 3e 0c 44 55 3e de 7f ff bd ee 2c 41 be
       0.20598382 0.20826739 -0.124755606 -0.18864796
000050 16 d3 1c 3e 96 6a 2b 3e 5d e8 c1 3c d0 c0 2e 3e
       0.15314898 0.16739878 0.02367037 0.1706574
000060 fe 12 59 3b 94 97 39 be 70 28 a6 3d 40 5c 29 bc
       0.0033122892 -0.18124229 0.081131816 -0.0103369355
000070 b3 18 e4 3d 94 ce 4c be 30 42 f7 bd 13 6a 8e bc
       0.111375235 -0.20000678 -0.12073171 -0.017384565
000080 28 da a7 bd 2d c5 6d be 92 ed 75 3e e8 63 38 3e
       -0.08195907 -0.23219748 0.24016407 0.18006861
000090 df e5 5c 3e cd b9 73 bd 0d bb c6 bd b0 2c 6b 3e
       0.21572064 -0.059503365 -0.09703646 0.22966266
0000a0 39 8a 57 3e 75 15 ca 3d 80 84 bb bb 1f c5 5b be
       0.21048822 0.09867374 -0.0057225823 -0.21461914
0000b0 85 f7 7a 3e 8a e3 53 3e 34 bf a7 bd 6c 63 28 3e
       0.24508484 0.20692268 -0.08190766 0.16444176
0000c0 57 5a e4 bd f9 2a 07 3e e0 09 fd bd 84 d0 06 3d
       -0.111500435 0.13199987 -0.12355399 0.0329137
0000d0 08 4c 9e 3d a0 9f 4a bd 32 92 28 be 88 8f 1c 3e
       0.077293456 -0.049468637 -0.16462019 0.15289128
0000e0 bb 13 79 3e 88 58 45 bd 8c 22 2a 3e 3f 82 29 3e
       0.24323933 -0.048180133 0.16614741 0.16553591
0000f0 25 42 14 be aa 2b 4c 3e c6 fe 2d 3d cd 05 59 3e
       -0.14478357 0.19938532 0.0424793 0.21193619
000100 40 3e 91 3d e2 4e 72 be 33 bf 3f be 96 23 b0 bd
       0.07091951 -0.23662904 -0.1872528 -0.086005375
000110 33 4b 25 3e 94 c1 2f bd 17 7c cc 3e 5e ba 21 be
       0.16141967 -0.04290922 0.39938423 -0.1579375
000120 9e 21 c1 3d fb 0a a8 bc a8 09 6d 3e 5e 7b 4d be
       0.0943024 -0.020513048 0.23148215 -0.20066592
000130 39 47 c2 bc a7 18 8c bd 0a 1e 27 be 7f 9a 10 be
       -0.023715602 -0.068406396 -0.16320053 -0.14121436
000140 60 83 c2 3c 99 ee 0a be 20 b1 24 3e 75 27 a6 3d
       0.023744285 -0.1356758 0.16083193 0.081129946
000150 bb ad 13 3e a5 d1 4a be 6f a9 7b bc d0 be a6 bd
       0.14421742 -0.19806536 -0.01536022 -0.08141863
000160 94 51 5b be c5 26 bf 3d 97 78 32 be 90 b2 0a be
       -0.21417838 0.093335666 -0.17428814 -0.13544679
000170 1f d0 cd 3c 9f 3b 97 3d 2c 7d 0e be ff b8 6c 3e
       0.025123654 0.07384419 -0.13914937 0.23117445
000180 50 75 1a be e8 55 ca bc f9 4f b7 3d 7c 2b 32 be
       -0.15083814 -0.024699166 0.089508004 -0.173994
000190 28 b8 9c 3e 2a ff 8c be a1 bc 03 3e 71 48 f1 bd
       0.3060925 -0.27538425 0.12864925 -0.11781395
0001a0 5d 98 ef bc d1 1c 8d be f4 7b 0c be a1 61 32 bd
       -0.029247457 -0.27561048 -0.1371916 -0.043550137
0001b0 65 c3 72 3e 2b 49 54 be c7 3e a1 be e9 68 00 3c
       0.2370735 -0.20731036 -0.31493208 0.0078375125
0001c0 60 38 c4 3e 47 47 df 3d 98 d6 3a be d9 91 de bd
       0.3832426 0.10902267 -0.18245924 -0.10867662
0001d0 0d e8 da 3d d1 7f 83 3d 4d 30 86 3d 95 c6 38 3e
       0.106887914 0.064208634 0.065521814 0.18044503
0001e0 e5 4a 3d 3c a1 09 92 3e 00 72 41 3c 23 8a b6 3d
       0.011553501 0.2852297 0.011806965 0.08913066
0001f0 3b 02 aa 3c a3 20 9e 3c 1a 3a ee bd cb 82 c3 3d
       0.020753017 0.019302672 -0.11632176 0.09546431
000200 90 47 f5 3d 81 e0 15 be 58 33 76 be 27 f2 92 bd
       0.1197654 -0.14636423 -0.24043024 -0.07175093
000210 44 90 65 be af 6f 15 bd 7b b9 d6 3d 5e e6 e8 bd
       -0.22418314 -0.036483463 0.10484596 -0.11372064
000220 11 02 61 be 2c 3a 4a 3e 69 35 b0 bd 73 3a 4d be
       -0.21973445 0.19748753 -0.08603937 -0.20041828
000230 67 1d 29 3d 78 d0 85 bd bf bb 16 be e9 d7 7c be
       0.041287806 -0.06533903 -0.14720057 -0.24691738
000240 a0 81 66 bd 79 e4 12 be fc fd 8a bd e3 30 a9 3d
       -0.056275964 -0.14344968 -0.06786725 0.082612775
000250 33 9e a4 3d 88 4c c6 3c a0 ad 02 bd a8 a6 29 3e
       0.080379866 0.024206415 -0.031903863 0.1656748
000260 37 25 2c be bb bd fa 3d 06 7b 0c bd 49 78 ac bd
       -0.16811071 0.122432195 -0.03429701 -0.0842138
000270 84 ba 1d be 96 55 6f 3a 50 e5 34 be 29 c9 11 3d
       -0.15403181 0.000912988 -0.17665601 0.035592232
000280 d8 e8 7d 3e 18 32 c6 bd 6d 49 4f 3e 58 2c 8e bd
       0.24795854 -0.096775234 0.20242853 -0.06942052
000290 4d 6d cf bd a4 d0 60 3e 4d 47 ae 3c c2 f5 40 be
       -0.10128269 0.2195459 0.021274233 -0.18843749
0002a0 15 5d 08 be c5 04 e7 3d 70 88 a5 bd 96 d9 df 3c
       -0.13316758 0.112802066 -0.08082664 0.027325433
0002b0 b9 d8 f7 3d 46 74 4d 3e 9b 98 56 3e cb 55 6f 3e
       0.121018834 0.20063886 0.20956652 0.23372571
0002c0 dd 56 5d 3e 7d 1e 75 bd 19 3c 2d 3e 6e bd 6f be
       0.21615167 -0.05984353 0.16917457 -0.23412105
0002d0 ee 92 13 be 50 de 3e bd 3f 82 20 be 59 60 59 be
       -0.14411518 -0.046598732 -0.15674685 -0.2122816
0002e0 2c c4 5d be 91 5d ce bd 20 6c e9 3c df 89 4a be
       -0.21656865 -0.1007644 0.02849394 -0.19779156
0002f0 02 1f 98 3b 69 ea 59 be d8 4c 00 3e 63 d0 75 be
       0.0046423683 -0.21280827 0.12529314 -0.24005274
000300 40 0d 12 be cd 21 3c 3d ac d5 12 be bc 17 38 bd
       -0.14262867 0.045930672 -0.14339322 -0.04494451
000310 66 f8 cd bd 3e 9c 04 3e 0a fb 74 3e 32 b8 ba bd
       -0.10057144 0.12950227 0.23923889 -0.09117164
000320 f6 21 c9 bd 51 e4 03 be 3f 13 20 3d 3b 16 5d bc
       -0.09820931 -0.12880065 0.039080855 -0.01349407
000330 bc 9b 81 bd 95 b4 50 3e 15 50 68 be 59 70 81 be
       -0.06328532 0.20381387 -0.22686799 -0.25281027
000340 f0 e5 78 bd 8f ee f3 bd fb 9a 73 ba 6f 64 a3 bd
       -0.06076616 -0.11910736 -0.0009292808 -0.079781406
000350 83 d9 75 3e e4 62 85 3d ed 04 42 3e ed 65 61 be
       0.24008755 0.065130025 0.18947192 -0.22011538
000360 bf 28 13 3e 13 a8 e6 3d 49 df d8 3d b3 d3 d6 bd
       0.14371012 0.11262526 0.10589463 -0.10489597
000370 08 ad e6 3d bb 99 14 3e ae ca 71 3e ef ea 68 3d
       0.11263472 0.14511769 0.23612472 0.056864675
000380 80 6e 11 3d 61 0d 2a be eb 15 45 bd 48 8a 84 3d
       0.03550577 -0.16606666 -0.048116606 0.064716876
000390 77 ec ee 3c 99 ab 78 be e2 66 a5 bd ea 2d 1c 3e
       0.02916549 -0.2428421 -0.08076264 0.1525189
0003a0 da b5 92 be e4 74 e7 3d ac e4 22 be fc d2 33 bd
       -0.28654367 0.11301592 -0.15907544 -0.043902382
0003b0 4d 0b 10 3e 0e ce 17 3e e0 67 6e be 7d 80 70 be
       0.14066811 0.14824697 -0.23281813 -0.23486514
0003c0 98 0e a2 3e be f1 a3 bc 45 e5 e1 bd 8a 58 26 be
       0.3165176 -0.020012733 -0.11030058 -0.16244712
0003d0 c3 f6 86 bd 10 e8 bd bd 67 de 04 3e ec 64 6b 3d
       -0.06590035 -0.09272778 0.12975465 0.057469293
0003e0 28 fc 89 3d f1 12 a0 3d c0 fc 84 bd 49 03 d6 3d
       0.06737548 0.07816113 -0.06493521 0.10449845
0003f0 ab 32 88 3e f9 48 f1 bc d0 91 7e be 2e 05 dd 3d
       0.26601157 -0.029453741 -0.2486031 0.107920036

dense_3/bias:0 f4 [64]
000000 00 00 00 00 c4 72 fd 3d 41 b7 c0 3c bc 2e 29 3e
       0.0 0.123754054 0.023524882 0.16521734
000010 ed 70 51 3c 24 b1 b1 3d fe 17 27 bd 4d 51 71 3e
       0.012783271 0.08676365 -0.040794365 0.2356617
000020 5b 49 09 bd e3 4f 4a 3e 18 77 a2 3c f5 ac 91 3e
       -0.033517223 0.19757037 0.019832179 0.28452268
000030 b5 fb 38 bd bc 61 2c bc 16 4e 19 bd 59 bd 57 3e
       -0.04516192 -0.010521349 -0.037427984 0.21068324
000040 00 00 00 00 e1 d8 ba 3d e4 03 2e 3d ec 46 02 be
       0.0 0.091233976 0.04248418 -0.12722367
000050 5b e1 4e 3d 39 3d 3b bd f7 0b 83 bb e8 cd b4 bd
       0.050507884 -0.045712683 -0.003999229 -0.08828336
000060 ba 2e 92 bc 3a e4 cb 3d 6f 23 e3 3d 67 51 91 b9
       -0.017844547 0.0995564 0.11090743 -0.00027717205
000070 27 a1 22 bd e2 3a 40 3e 00 db a5 3e 2e 37 ac 3d
       -0.039704468 0.18772462 0.32393646 0.08408962
000080 a5 a6 31 3c 51 3a ee 3d b6 a4 07 bd 00 00 00 00
       0.010842954 0.11632217 -0.033116065 0.0
000090 92 d4 23 3d 1e c4 c1 3e 3e 55 f9 bd d6 47 05 3d
       0.039997645 0.37844938 -0.12174462 0.03253921
0000a0 18 d8 19 3e 78 0f 3e 3e 00 00 00 00 71 c6 4b bd
       0.1502384 0.18560588 0.0 -0.049749795
0000b0 34 7d 26 bd 6d a0 80 bc 50 f6 9e 3e 93 6c 89 bb
       -0.040646747 -0.015701497 0.31047297 -0.0041938513
0000c0 ed 19 fe 3d 59 c0 88 3d 36 24 43 3c 70 be be 3d
       0.12407289 0.066773124 0.011910489 0.09313667
0000d0 15 d8 01 3d 31 f9 4b 3d 7a fb 50 bd c7 f1 41 bd
       0.031700213 0.049798194 -0.051021077 -0.047349717
0000e0 47 b0 8c bd 3b 7c 09 bd 00 00 00 00 47 96 b5 bd
       -0.0686956 -0.03356574 0.0 -0.08866554
0000f0 62 f6 1a 3d be e1 8f bd a9 fb 8a 3e 24 12 05 bd
       0.037832625 -0.07025479 0.27145126 -0.032488003

dense_2/kernel:0 f4 [2, 32]
000000 8c 70 76 be 1f 19 79 bf ac 35 0a bd 55 cd 09 bf
       -0.2406637 -0.97303957 -0.03374259 -0.53828937
000010 16 cc 0f be b8 5a 45 3f 51 41 9e bd 26 a0 c3 bd
       -0.14042696 0.7709155 -0.07727302 -0.0955203
000020 d0 f9 0a bf 0a f2 5e 3d 50 eb 45 3c c5 d2 b8 be
       -0.54287434 0.054430045 0.012080029 -0.36098304
000030 8b 9d c5 3d 3d 63 1c 3f 83 0a 6e 3e eb b1 a6 be
       0.096491896 0.61088926 0.23246197 -0.32557616
000040 b4 d0 ea 3e cd 30 b9 be b0 72 f8 3d a6 80 45 3d
       0.45862353 -0.36170045 0.1213125 0.04821839
000050 c4 fd 4a 3d 51 1c cf be 3c 51 2f 3f 5b 7e df be
       0.049558416 -0.4045129 0.6848333 -0.4365109
000060 4e a2 bd 3c 67 35 4f 3e eb 56 e8 3e 5f ae 31 bf
       0.023148682 0.20235215 0.45378813 -0.69406694
000070 35 d0 ba 3e 9b f5 df bd 0a 3d e7 3e 31 b5 8c 3e
       0.36486974 -0.109355174 0.45163757 0.27481988
000080 f6 8d 04 3c d8 9b 06 3d 30 a3 14 3e 2d 36 b7 3e
       0.008090487 0.032863468 0.14515376 0.3578352
000090 1b af 64 be 39 4b 9a be 52 51 02 3e df 39 d3 3e
       -0.22332422 -0.30135515 0.12726334 0.4125509
0000a0 52 19 96 3c 41 79 2a 3e 8f 5e b3 be ec 0d 47 3c
       0.01832262 0.16647817 -0.3503308 0.012149315
0000b0 ce ac 1c be bd 72 75 be 7f 5e 05 bf f8 ef d2 be
       -0.15300295 -0.2396955 -0.52097315 -0.41198707
0000c0 05 d8 9b bd e0 d4 e1 be 39 09 81 3e 11 74 92 be
       -0.07609562 -0.44107723 0.2520235 -0.28604177
0000d0 e5 d0 2b 3e fd 1d 7b 3c 5f 0a c0 bc f9 1c c5 be
       0.16778906 0.015326974 -0.023442445 -0.38498667
0000e0 87 81 c2 3e d1 b3 cb 3e d4 06 73 3c 2b e3 c9 bc
       0.37989447 0.39785627 0.014833171 -0.024644455
0000f0 cd 03 4c bc 4b be b6 3e ff 7b 15 bd 1c e8 28 be
       -0.012452078 0.35692057 -0.036495205 -0.16494793

dense_2/bias:0 f4 [32]
000000 b5 34 87 3b af 47 89 3c 97 4c 4d bc d5 74 b1 3d
       0.004126156 0.016757814 -0.0125304675 0.08664862
000010 3d 5d 4d bd 36 28 9c bd 27 66 a6 bd de 17 10 bd
       -0.050137747 -0.07624857 -0.08124953 -0.03517901
000020 98 da 19 3c 32 94 0a 3e 15 c5 22 3e be aa c9 3b
       0.009390496 0.13533095 0.15895493 0.0061543873
000030 2c de 82 3d 78 80 78 bd 49 aa 91 3e 6a d0 0d 3d
       0.06390032 -0.060669392 0.2845023 0.034622587
000040 2b d3 14 bd c4 a0 f8 3d 68 56 12 3e 17 27 c2 bc
       -0.036334198 0.121400386 0.14290774 -0.02370028
000050 18 91 14 3e 35 7d 25 3c 3e d4 47 bc 88 98 5c 3e
       0.14508474 0.010100652 -0.012196599 0.21542561
000060 03 01 2f 39 b4 e5 e9 ba e8 12 15 3d 74 30 71 bd
       0.00016689677 -0.0017844946 0.036394984 -0.0588841
000070 75 89 d5 bb a6 65 86 bd 8c 77 20 bd 66 f1 97 3e
       -0.0065166303 -0.06562357 -0.03917651 0.2967636

dense_1/kernel:0 f4 [2, 2]
000000 cb 5e ce 3f d5 cd 8e bf d4 c1 d3 bf f1 54 07 be
       1.6122679 -1.1156565 -1.6543527 -0.13215996

dense_1/bias:0 f4 [2]
000000 19 3a 21 3c 5f 9d 69 be
       0.009840512 -0.22813939
